day7/data/cnn_fashion_model.pth (torch, 206252 bytes, 6 tensors)

weight f4 [32, 1, 3, 3]
00000000: acfd 733e fc5c a43e 5a64 303e 26b2 0f3e
00000010: 0ccb 043f d5f0 d5be 6f0b 82bc 5159 833d
00000020: 24e9 7abf e7fd f1bd f586 09bc 69b9 a23e
00000030: 774c fc3d e84e 59be cee1 593e 4b51 633e
00000040: 06df 8f3e 0db3 fdbe acd3 fabe e3fe 4ebe
00000050: ca51 023f a57c 1b3f 0e01 303f 883d 0abe
00000060: 1cc9 f8bd 5980 91be ebe8 3ebf d729 8d3b
00000070: d72c 1bbe 0bff a83e 985f 5ebe 2982 6f3e
00000080: a49b a43d 52d0 cf3d cb6a 453c 355f 90be
00000090: 7cd0 35bf 8486 39be 6c17 123f 3adf 133f
000000a0: 3a22 a9be 93ed b5be c8d7 883e f5da 28bd
000000b0: 955e 0bbe 57eb ba3c 4fb5 fa3e f21f 2abf
000000c0: f65c 69be 4cb2 f03e 5bbf 603e 270a bc3d
000000d0: 1ca1 cebe 9083 8e3e 801f fa3e 340e 37bd
000000e0: 1429 9dbe c866 49be d980 88be bf8f 16bf
000000f0: 2e36 023e 18a8 153f 67b6 983e 3950 52bf
00000100: f842 f9be 6bce a83d 7573 0bc0 437f febe
00000110: 43b5 e6bc 023b 51bf 2aee e93d 882a 263f
00000120: 2d76 16bf 16c0 4bbf feaa 80be 2213 823d
00000130: 7677 393e 5d9d c1bd 826b f23e 0ced f13e
00000140: 294f d03e 95cd 12bf 18ba 3bbc 4842 8b3e
00000150: 1ef2 f03e abd9 a43e aa79 06bf 7c7b cdbe
00000160: 2406 ad3d fa62 353e 8d8b b23e 3316 6d3e
00000170: 6833 a93e 0dd3 753e e70e 103e c98f 663e
00000180: a6cb 94be 6a7a 08bf 5f57 68be 10cc 39bd
00000190: e6f3 c93e fff5 b33e ed52 0bbf 6f76 abbf
000001a0: 62e1 86bf a112 013f ea14 d13e 9a82 b13d
000001b0: e034 06be f78b 173e d3a3 8ebe caf0 28be
000001c0: 8f33 0abe ad68 883d 38df 973d 9bd9 9ebe
000001d0: d1e3 79be 5074 af3e 261d 903e 4379 59be
000001e0: 1d3c c83e a224 8abe b9d0 1cbf 9f22 b33e
000001f0: 33b0 1d3e 6126 a13d 3b31 dcbd 5050 033f
00000200: bef3 c4be 8fb7 18bf d982 7c3e 09b2 ba3e
00000210: d086 efbe 6301 b13d ff08 c53e 8fd1 5b3e
00000220: 3060 0a3f 2766 0d3f d9cd 67bd 7147 603e
00000230: af8c 86bd e6a0 4cbf dbc2 f1be b893 9abe
00000240: ba8f b1bf f007 06c0 3fe8 8dbe 99c8 05c0
00000250: 566e eebf 0907 bbbe fec7 59bf 2736 0bbf
00000260: 7299 0a3d 6f7d 11bf 3dea 573e a62b 1f3e
00000270: f3a8 aabe 5ba7 063f 31fc eb3d e12e 84be
00000280: 23d0 fb3d 6957 2d3d 49d2 0fbf d691 65bf
00000290: 8557 323e 4718 0cbf ee80 ff3e 70dc 883e
000002a0: 6752 193d a3b9 dc3e 097b 4abe 96a8 f83e
000002b0: 9516 c73e 2e27 a13e 1409 623e 9d83 a1bd
000002c0: 6ff7 e33d e911 2bbf cf39 43bf d533 8ebe
000002d0: beda 703e 086e 3d3e bbb3 27bf dde4 2b3d
000002e0: 4892 f53e 135d e53e fb8e 20bf 33d4 8cbe
000002f0: ace7 723e 7b69 243d 5551 903e e31e f6bd
00000300: 8344 e4be 03d1 7a3e 5234 a4be 47cf 0f3d
00000310: e74f b43d 290a 823e cd77 2a3e 9853 db3e
00000320: 8e91 ce3e 5d87 2f3f cb9f a2bd d041 04bf
00000330: 4a46 bb3e 1dc4 42bf 920e 32bf 68ff 083f
00000340: 1e7c 19bf 3471 373e 9543 27bf 6bd3 00bf
00000350: da93 073f 98c7 74bf 303d 5cbe 2d79 8e3e
00000360: a07d 0dbe 8472 be3e 6891 04be 1afa 3f3e
00000370: 99e0 99bd 774b eb3e ea05 cb3e 93f1 933e
00000380: 0f49 573c d2d8 1fbc 7491 74bf 48df e7be
00000390: ecc6 073e 2eb7 d4bd 876b 87bd ee07 383f
000003a0: 07d7 ef3e 468e d23d 53e8 babf 8941 f4bf
000003b0: 3d41 3abf b0cd 9cbe 5bdf ffbe 9709 abbe
000003c0: 4dc2 513e 82e3 913e c3eb 163e 4417 72bd
000003d0: 2534 f3be e776 0f3f f5a7 1fbf 6014 2bbe
000003e0: 8d57 083f c3ce 8c3e 4895 83bd 05da acbd
000003f0: 4bc0 01bf beeb fcbe 8726 4c3e a565 3ebf
0.23827237 0.3210219 0.17225781 0.14032802 0.51872325 -0.41785303 -0.015874593 0.0641352
-0.98011994 -0.11816006 -0.008393993 0.31782082 0.12319272 -0.21221507 0.21277544 0.2219898
0.2809984 -0.49550667 -0.48989618 -0.20214419 0.5090605 0.6073707 0.6875161 -0.13500035
-0.121477336 -0.28418234 -0.74574155 0.004307966 -0.15153824 0.33007082 -0.21716154 0.23389496
0.080374986 0.10147156 0.012049387 -0.28197637 -0.71021247 -0.1811772 0.5706699 0.5776249
-0.33033925 -0.35532817 0.26727128 -0.04122444 -0.13610299 0.022817297 0.48966452 -0.66454995
-0.22789368 0.4701103 0.21947996 0.09181624 -0.40357292 0.2783475 0.48852158 -0.04469128
-0.30695403 -0.19668114 -0.26660803 -0.5881309 0.1271598 0.58459616 0.29826662 -0.8215366
-0.48683906 0.08242496 -2.178922 -0.49706468 -0.028162604 -0.81730664 0.11422379 0.6490865
-0.5877407 -0.79589975 -0.25130457 0.063513055 0.18111977 -0.09453843 0.47347647 0.47251165
0.40685394 -0.57344943 -0.011457942 0.27199006 0.4705972 0.32197317 -0.52529395 -0.40133274
0.08448437 0.17713538 0.34872094 0.23153 0.33047032 0.2400629 0.14068185 0.22515787
-0.2906162 -0.5331179 -0.2268958 -0.045360625 0.39443892 0.35148618 -0.5442341 -1.3395518
-1.0537531 0.5041905 0.4083627 0.086674884 -0.13106108 0.14799486 -0.27859363 -0.16498104
-0.1349623 0.0666059 0.074156225 -0.31025395 -0.24403311 0.34268427 0.28147238 -0.21237664
0.39108363 -0.26981074 -0.61255985 0.3498735 0.15399246 0.07868648 -0.107515775 0.5129442
-0.3846721 -0.5965509 0.2465929 0.36463955 -0.4678254 0.086428426 0.38483426 0.21466659
0.5405302 0.55234 -0.056592796 0.21902253 -0.06569802 -0.7993301 -0.47218975 -0.30190825
-1.3871987 -2.0942345 -0.27716252 -2.0903685 -1.8627422 -0.36528805 -0.8507079 -0.54379505
0.033837743 -0.5683202 0.21085449 0.15543994 -0.33332023 0.52599114 0.11522711 -0.25817016
0.12295558 0.04231969 -0.56180245 -0.89675653 0.17416199 -0.54724544 0.49903053 0.2673068
0.0374321 0.4311038 -0.19773497 0.4856612 0.38884416 0.31475204 0.22073776 -0.07886431
0.111311786 -0.66824204 -0.76260084 -0.2777392 0.23520944 0.18499005 -0.6550862 0.041966308
0.47963166 0.44797572 -0.6271817 -0.27505645 0.23721188 0.040139657 0.2818705 -0.1201761
-0.4458352 0.24493794 -0.32071167 0.035109784 0.08804303 0.25398377 0.16647263 0.42837214
0.40345424 0.6856592 -0.07940634 -0.5166292 0.36577064 -0.76080495 -0.6955348 0.5351472
-0.5995501 0.17914277 -0.65337497 -0.503226 0.5295998 -0.95617056 -0.21507716 0.27826825
-0.13817453 0.37196743 -0.12946093 0.1874775 -0.07513542 0.45956013 0.3965295 0.28895244
0.013139977 -0.009756284 -0.95534444 -0.45287538 0.13259476 -0.10386501 -0.06612306 0.718871
0.4684374 0.10281043 -1.460215 -1.90825 -0.72755796 -0.30625677 -0.49975094 -0.33405754
0.20484276 0.28493887 0.14738373 -0.05910422 -0.4750072 0.56040806 -0.6236566 -0.16706991
0.5325859 0.27501497 -0.064249575 -0.084400214 -0.5068404 -0.49398607 0.19936572 -0.7437385

bias f4 [32]
00000000: c33c 12bd 11e8 47be a96d a6bb 9950 0cbb
00000010: 4858 d13b 9380 08be dbb2 14be a94a a43e
00000020: 53c4 9e3d 17af 66be f428 c6be d73a 263e
00000030: c79f 8cbe 625c 8bbe 80a0 25bc aa43 3739
00000040: 64ef 183f 091e 12bc 4b5e 2f3d 4930 a8ba
00000050: 64ec 70bb 1cad a6bc 91ba 91ba f76c a33e
00000060: 29b5 36bd 5d4f 5b3d 2c94 923e e2df 5abd
00000070: 9424 9ebc 9eea 303d d2c8 d5be 2f09 2cbc
-0.03570248 -0.1952212 -0.0050789905 -0.0021410345 0.006388698 -0.13330297 -0.14521353 0.3208821
0.077522896 -0.22527729 -0.3870312 0.16233383 -0.2746565 -0.2721892 -0.010109067 0.00017477447
0.5974028 -0.008918294 0.042814534 -0.0012831773 -0.0036761994 -0.020346217 -0.0011118223 0.3191907
-0.04460636 0.053542484 0.2862867 -0.053436168 -0.019304551 0.0431925 -0.41754776 -0.010500236

weight f4 [64, 32, 3, 3]
00000000: d9fd b8be 8286 733e fe3b 4d3d 994b 12bf
00000010: 2a5a ccbd 8806 2f3d 91bf bbbe b570 82be
00000020: d4ec c93d fefe 1dbe f27f 973d e868 8d3c
00000030: be52 3dbb a382 72bd df24 703d d43a 40be
00000040: bbad 8f3d 8f79 673c dce6 d3bd 71a0 1a3e
00000050: ad08 fa3d 5b18 ff3c 419c 80be 54de 603d
00000060: e64b 5f3d 7ce9 69be 2109 11bd 24ed 10bc
00000070: 5423 a6bd 1532 e5bd c6ba 8bbd a898 ebbc
00000080: 7584 c5bc a4d3 8cbd 56e8 083d b8ca 2f3d
00000090: a141 16be 761d 80be ba79 8e3e b7d0 b13e
000000a0: 2c57 e4be e3c4 3a3e 44eb d33e 8b3d 263e
000000b0: bd13 793e 3a91 913d 1ea4 0a3e fdb2 5bbc
000000c0: 7819 703d e65a e93d e13c 83bd bd10 26be
000000d0: 9910 ea3d 46ad 303e f644 e2bd 957b 633e
000000e0: fd41 333e 4a6b c6bb 51b5 223e 502c 1f3e
000000f0: 3b58 423d efe0 edbc ea09 523e 56e7 723e
00000100: d6ae c5bd 8c96 473d f2aa 143c 0091 fcbd
00000110: 3267 cbbe 6d27 a0bc 738e 7fbd 18ef a1be
00000120: ceaa 26be c525 76bd dad5 e63b 81da 92be
00000130: 7671 103d 7264 bcbb c0c6 34be b876 90be
00000140: 4d04 4cbd f349 663d 0765 9c3d 15dd f6bd
00000150: 2d18 513d 0805 be3d 428c a1bd 6627 82bd
00000160: e952 3e3d f789 36bc 3575 903c 7eae 1c3e
00000170: 92bf 2fbe 480c 11be dcd3 0f3e b613 50bd
00000180: d1be 35be 6179 0d3d 2f66 993d 7aea 9cbe
00000190: 7a1d 02be c48c 1a3e ae9c 29be 5eda 39bd
000001a0: 40d6 e5bd ab31 683e 409e d53d 0e63 edbd
000001b0: 14d9 78bc acf6 0fbc f798 113d 7535 3c3d
000001c0: b3db 803c 059b 4f3d bc04 75bc 31d1 73ba
000001d0: 94b3 713c 0b2c 66be 0697 683e 6230 383d
000001e0: 887d 8dbe a826 b23c 6486 0b3e 8119 85be
000001f0: 6dc6 9abd 59d8 273e 93eb 203e 9813 fabc
00000200: e176 ffbb 9db8 c13c bd8b b13d f11f 21be
00000210: b620 30be c6e9 1b3e 0f20 1b3d e3b6 67bd
00000220: 0da4 6abe 8d39 9ebe 6a54 a9bd 6919 da3d
00000230: 5f8c 40be 806c 4a3d 4c2c 2a3e faa5 043e
00000240: 642c 96bd aa77 23bd 0a10 293e 62f0 a13d
00000250: ebc4 a9bd ae97 e1bd 7cb0 683e b77e 1e3e
00000260: 5548 9fbe 352a 573e 1b12 f4bd 0d94 9dbd
00000270: cf16 313e 5152 253d 515a 8839 92c1 02be
00000280: 128f a83d c791 523b 1a39 803e ee69 c23a
00000290: 833f 16be ad14 91bc 4f78 27be 4fb0 e4ba
000002a0: 67ba 73bd bafd 30be 59f2 19be 78dc 9dbd
000002b0: 4081 78be 87ad 80be 1912 81bd bfeb f8bd
000002c0: 579a cebe 939a 5fbd e3ea 53bd 8deb 5abd
000002d0: a225 483d 9c7d a03d 47aa 72bd 6e75 663c
000002e0: a0e8 193e 4be0 0cbe 4a9e 1ebe 0d9b 1f3e
000002f0: 47ef 4b3e 3cbb 1e3e 05d2 22bd e2cb 50bd
00000300: b00f 19bd 9bcf 94bb 46e2 3abb fe39 42be
00000310: 6716 623d c67d c93d d9c1 bbbe 56fd acbc
00000320: 95c7 fb3c cfae dcbe c6e2 ddbe 3d78 013d
00000330: 5612 48be 117f 9bbe ccd3 f83a 925d 8f3e
00000340: f9a8 0dbe 4db9 003c 231f 023c be10 0bbe
00000350: 099e 0dbf 45c8 7cbd edbe d83d ad07 2bbe
00000360: a688 1bbe 0604 02bc 9599 c0bd 275b 8fbe
00000370: 8fda c4bd beec 333c e7d2 b5be 98d2 00be
00000380: 2641 8a3d 8794 fbbe 5358 40be 762a 933d
00000390: faa7 d4be ded8 2ebe 9622 ca3d 0fd1 c43c
000003a0: fa65 83be 3371 423e 6b07 49be b187 173d
000003b0: fb0c cb3d 9715 8cbe 8c47 8dbd 0ff4 dc3d
000003c0: 6723 053e 11fd 8fbc 6e1b 0abe 3411 1c3e
000003d0: 4e1a b2bd 94b5 a03d b5e8 793c a639 9d3c
000003e0: 2206 eaba 1eae f03c 254e 083e 893f 1f3e
000003f0: bb53 153e fc28 57be fd81 ebbd 496d 01be
-0.3613117 0.2378178 0.05010604 -0.571466 -0.09978135 0.042730838 -0.3666959 -0.25476614
0.098596245 -0.15429303 0.073974505 0.017261937 -0.002888843 -0.059206616 0.058628913 -0.18772441
0.07015558 0.014128103 -0.10346767 0.15100266 0.12208686 0.031139543 -0.25119212 0.05489953
0.05451574 -0.22842973 -0.035409097 -0.008845601 -0.08112207 -0.11191193 -0.068227336 -0.028759316
-0.024111012 -0.06876305 0.033424698 0.042917937 -0.14673473 -0.25022477 0.27827245 0.3472955
-0.44597757 0.18239169 0.4139043 0.16234414 0.24323936 0.07107778 0.13539168 -0.013409373
0.05861804 0.113942906 -0.06408096 -0.16217323 0.11428947 0.17253599 -0.110483095 0.22215112
0.17505641 -0.0060552703 0.15889479 0.15544248 0.047447424 -0.02903792 0.20511594 0.2372106
-0.09652488 0.048727557 0.00907396 -0.12332344 -0.3972717 -0.01955005 -0.06239171 -0.31627727
-0.16276094 -0.060094614 0.007044536 -0.2868233 0.035264455 -0.0057492787 -0.17653942 -0.28215575
-0.04980879 0.056222867 0.07636457 -0.12053887 0.051048446 0.092783034 -0.0788808 -0.06355171
0.046465788 -0.011141292 0.017634014 0.15300938 -0.17162922 -0.14164841 0.14045662 -0.050800048
-0.17748572 0.034539584 0.07490193 -0.3064764 -0.12706557 0.1509276 -0.16563675 -0.045374267
-0.112225056 0.22675197 0.104305744 -0.11591159 -0.015188474 -0.0087868385 0.03554627 0.045949418
0.01572976 0.050684948 -0.014954742 -0.00093008863 0.014752287 -0.22477739 0.22713861 0.044968016
-0.27634835 0.021746948 0.13625485 -0.2599602 -0.07557378 0.16391124 0.15714864 -0.030526921
-0.007796154 0.0236476 0.08669231 -0.15734841 -0.17199978 0.15225896 0.03787237 -0.0565709
-0.22914143 -0.30903283 -0.08268054 0.10649378 -0.18803547 0.04941988 0.1661846 0.1295394
-0.073326856 -0.039909042 0.16510025 0.079071775 -0.08289512 -0.11015259 0.22723573 0.15478025
-0.31109872 0.21012194 -0.11917516 -0.07694254 0.17293857 0.040361706 0.00026007232 -0.12769154
0.082304135 0.0032130347 0.25043565 0.0014832595 -0.14672665 -0.017710054 -0.16354488 -0.0017447564
-0.05950394 -0.17284289 -0.15033855 -0.07708067 -0.24268055 -0.2513239 -0.0630228 -0.1215434
-0.40352127 -0.054590773 -0.051737677 -0.053447295 0.048864014 0.07836458 -0.05924442 0.014066083
0.15030146 -0.13757436 -0.1549007 0.15586491 0.19915496 0.15501112 -0.03975107 -0.050975688
-0.037368476 -0.00454135 -0.0028516217 -0.18967435 0.055197146 0.098384425 -0.36671332 -0.021116894
0.030734817 -0.43102118 -0.43337077 0.03160881 -0.19538245 -0.3037038 0.0018984019 0.28001076
-0.13833989 0.007856679 0.007941994 -0.13580605 -0.5531927 -0.06171443 0.10583291 -0.16702147
-0.15188846 -0.00793553 -0.094042934 -0.2799923 -0.09611999 0.010981737 -0.35512468 -0.12580335
0.06750707 -0.49136755 -0.18783693 0.07185833 -0.41534406 -0.17074916 0.09869878 0.024025468
-0.2566374 0.18988495 -0.19631736 0.03699464 0.09914585 -0.27360222 -0.06898412 0.10788738
0.13001786 -0.017576726 -0.13487026 0.15240937 -0.086964235 0.07847133 0.015253236 0.019192528
-0.0017854611 0.0293799 0.1331106 0.1555158 0.14582722 -0.21011728 -0.11499403 -0.12639345

bias f4 [64]
00000000: 77a1 15be 1b66 65bd 3b68 c1bd 038c 91bd
00000010: 486e 9abc f476 e3bd a934 70bd c13c d3bd
00000020: b86a e7bd 6ffb 093e aa5e 9bbd cd5a 23bc
00000030: a408 f6bd ad43 98bd b795 24bc 6acc 7fbd
00000040: cf96 3fbe dae7 34be 48b2 18bd 15f4 f8bd
00000050: 6005 4ebe 1218 c93d ca7e d83c 16c3 55bd
00000060: d4b8 0ebe 2254 8d3e d32f 4abd 8ec3 f83b
00000070: 0bc8 7d3e fa5a 9bbd 63e8 23bd 4305 563d
00000080: 555c 00be a671 3bbe e7db 17be e74a d1bd
00000090: cf3e f4bd dd37 ea3d 81ee 3dbd 1a72 13bc
000000a0: 08f1 53be 7dfe 1cbd e066 ab3d 6945 d2bd
000000b0: 10d2 bb3a 2f4c 0fbc 633b 913d 7f6c 35bd
000000c0: 1703 3bbe 631c 853d b777 23be 0a7a eabd
000000d0: 0b41 31be 2498 a2bc 2d8b 353c 3b6f 413d
000000e0: f95e 8dbd abea 7f3d 4bdb fbba 8477 4bbd
000000f0: 68d7 0c3d cd54 5bbd f881 bbbb a7b7 29be
-0.14612375 -0.05600558 -0.094437085 -0.07106783 -0.018851414 -0.11106673 -0.05864397 -0.10314322
-0.11299652 0.1347482 -0.07586415 -0.009970379 -0.12013367 -0.07434783 -0.01004546 -0.062450804
-0.18709873 -0.1766657 -0.037279397 -0.1215593 -0.20119238 0.09819044 0.026427645 -0.052188
-0.13937694 0.2760325 -0.049362015 0.0075916713 0.24783342 -0.07585712 -0.040016543 0.05225111
-0.12535222 -0.18305072 -0.1482998 -0.102193646 -0.11926042 0.11436436 -0.046370033 -0.008999372
-0.20697415 -0.038328636 0.08369231 -0.10267145 0.0014329571 -0.008746191 0.07091405 -0.044292923
-0.18262897 0.06499555 -0.15963636 -0.11449058 -0.17309968 -0.019847937 0.011080545 0.04722522
-0.0690288 0.062479656 -0.0019215135 -0.049674526 0.034385115 -0.05354767 -0.0057222806 -0.16573964

weight f4 [10, 3136]
00000000: 8a70 e83d c810 a1be eedf f0bd 6bfa 0b3e
00000010: e711 08be 2eaf 233e b794 24bd f99c babd
00000020: 67c7 bb3d 726e fcbc a4d1 eabb fd70 e6bd
00000030: 91dd e83b d3c5 78be ad41 c6bd 3510 1ebe
00000040: d378 023e 9c4f 183d 089a 75bd 490a ff3d
00000050: 09ae 7b3d 9e6f b6bc df96 1c3b 9ec8 023e
00000060: aae9 55bd 7bcd 113e 460f d13e 5819 3e3e
00000070: ff91 09bd 2a9d d1bd 9384 f1bd 0c68 6bbe
00000080: c37b c63c ec3d e73e d847 aabd 8966 1f3e
00000090: 4e9d dc3c 0062 bf3e ffc7 a4bb f48f 11be
000000a0: 6bcd afbd 287b c7be ffb4 d73d 7fef 7abe
000000b0: 0802 cebc f14a 0cbf 4e8e 0bbf 0ff9 8dbe
000000c0: 46d8 9ebd 939d 8ebc a0f1 f6bc 2231 803e
000000d0: 4238 803c 0296 d2bd 14fb 15be 08a6 0c3e
000000e0: db71 efb9 e703 e0bd 0e7b 533e 0e53 7dbd
000000f0: 6cde 73be 7192 953c 2be8 fbbd ebe7 3a3c
00000100: 4d4a 4dbc 5eac 6c3d 63f0 013e 39c2 0a3e
00000110: 81a4 d9bc bb58 7cbd 11df 9abc ad3a e5bd
00000120: f5f1 82bb 05a2 6dbe 6b03 703c 1969 fd3c
00000130: 4175 8bbe 3d6d 42bd fe23 c9bd e127 8abd
00000140: 55a3 3f3d 0962 81be 39f4 efbd 7ec5 d03b
00000150: 14f6 a5bd 9c11 33bd b992 c4be 4b21 283e
00000160: 7255 9d3d fa00 d9be f8d9 96bd 079b 13bd
00000170: 6a3e ee3c f443 15bd 9e5a a0bd 93f7 043e
00000180: aa17 86bd 7141 6abe ac8f d63c d5b2 de3d
00000190: d10f ccbd 3394 aabe ab82 c03c c5f8 863d
000001a0: 8a5e 2f3d d850 1ebe fd7c 2dbd 17d6 ecbd
000001b0: d3be dcbd 872c 64be ab44 afbc 21ed 8cbc
000001c0: 94c3 9b3d 39c6 58be bbab adbd 3c95 693e
000001d0: 53ec 243d 01d2 36be 4ee0 74be a784 033d
000001e0: 91d3 3b3c 2824 603e 7bdb e03d ce17 383e
000001f0: ba6a 903e bb57 8fbe b24c d0bd e3f3 3f3e
00000200: ac12 e33d ffee 56bd 15a9 b93d c393 18bd
00000210: ad1d 913d ea86 a83e 3b62 16be 5eb9 43be
00000220: 33dc 6bbc 5d35 4a3e 9d70 cbbd ae95 703d
00000230: 3bb0 773c d34c b9be 5419 f8bd a9b1 5abe
00000240: d476 84bd 144c 783e 3af6 a43d 6144 243d
00000250: 560f e0bb 3e18 0d3d 7d7b c63c 12a4 cfbb
00000260: 50f8 d33b f86b babb a28b ca3c 53c4 493c
00000270: cde8 37bc 0ddd 123d 07c3 073c 8d12 01bc
00000280: cb4c fcbc 1f3f 5fbc 9732 1dbd 3eff 06bd
00000290: 9634 073d 5c17 01bd 3963 3bbc 0ac9 a23c
000002a0: 6657 4dbd 697a eebc 3df7 a03c 5292 053d
000002b0: c2e1 90bc fb1e 823c 3c78 26bc 573d d13c
000002c0: 0703 30bc 2887 34bc 2db7 38bd a32c ee3c
000002d0: 1cd2 673c acac abbc f933 b4bc e81c a73c
000002e0: 17dd 093c 8242 403a 6161 d9bb 7bb1 533d
000002f0: 3773 873c 814c c4bc e21f a13c 2dc9 05bd
00000300: 898e 62bd dc45 8fbc fbcf 2ebd a022 f8bb
00000310: b331 2d3e eee2 ecbc 2879 30bd b097 9ebe
00000320: 699d 0c3d b803 6fbc 3a34 8d3c a823 8cbe
00000330: cc79 e7bd 9008 e5bc ebdc 4e3e 01af 473e
00000340: 3900 f23d 1a16 e6bd 55c4 0a3e 7f4b b53c
00000350: cba4 8dbd e8bb 843d 01fe 573c f38c 423e
00000360: 39a5 3abe d134 96bd 90ac 9b3d 830f f8bc
00000370: c181 28bc 9499 013e 059b 53bd 9897 1abe
00000380: 0416 4cbe 8709 283d 0900 24bc 1906 f03c
00000390: c90f 3abe e15d fcbc dd60 4bbe 61cb b73e
000003a0: b4fa 2f3d 6468 a63c 5178 cbbb b4ec 5d3d
000003b0: 8e64 5bbd ad10 d4bb cb9b 2bbe 32a3 8d3d
000003c0: bea7 173d a5fc c0bd 1fd2 dabc 929f 24be
000003d0: b818 47be 0193 47bd d675 23bd 5513 e9bb
000003e0: 4733 f03d 4243 1f3e 4dac 39be 2634 acbd
000003f0: a7e6 92be a481 8a3e 4ae7 043e 900e 25be
0.1134959 -0.31458116 -0.11761461 0.13669746 -0.13288079 0.15984794 -0.040180888 -0.091119714
0.09168892 -0.030814383 -0.0071661044 -0.112520196 0.007106491 -0.24294214 -0.096804954 -0.1543587
0.12741403 0.037185296 -0.05996135 0.124531336 0.06144527 -0.02227002 0.0023893637 0.12771842
-0.052224793 0.14238541 0.40831965 0.18564355 -0.0335865 -0.10235055 -0.11792865 -0.2298891
0.024228936 0.4516443 -0.08314484 0.15566458 0.026930477 0.37379456 -0.005028724 -0.1421507
-0.08584102 -0.38961148 0.10532569 -0.24505423 -0.025147453 -0.5480185 -0.54514015 -0.2772908
-0.07756095 -0.017409122 -0.030144513 0.25037485 0.015651826 -0.10282518 -0.1464656 0.13735211
-0.0004567046 -0.10938244 0.2065241 -0.061846785 -0.23815316 0.018258305 -0.12300142 0.011407833
-0.012529922 0.05778157 0.12689357 0.13550653 -0.0265677 -0.061608057 -0.018905194 -0.11192832
-0.0039961287 -0.23206337 0.014649252 0.030933904 -0.27237895 -0.04746746 -0.09821318 -0.067458875
0.046786625 -0.25270107 -0.11716504 0.006371199 -0.08103576 -0.043717965 -0.3839319 0.1641895
0.07682313 -0.42383558 -0.07365793 -0.036036517 0.029082496 -0.03644176 -0.07829784 0.12985067
-0.06547482 -0.22876526 0.026191555 0.10873953 -0.09963954 -0.33316192 0.023499807 0.06590418
0.04281477 -0.15460527 -0.042355526 -0.11564272 -0.10778584 -0.22282611 -0.021395048 -0.017202916
0.07605663 -0.21169366 -0.084800206 0.22810835 0.04026444 -0.17853548 -0.2391369 0.03210893
0.011464016 0.21888793 0.109793626 0.17977831 0.28206426 -0.2799662 -0.101708785 0.18745379
0.11087546 -0.05247402 0.09065453 -0.03725029 0.07085738 0.3291543 -0.1468591 -0.1911368
-0.014395761 0.19746919 -0.09933589 0.058736496 0.0151177 -0.36191425 -0.12114206 -0.21356834
-0.06467977 0.24247772 0.080547765 0.040104274 -0.0068377657 0.034446947 0.024228806 -0.0063366974
0.00646881 -0.0056891404 0.024724785 0.012314874 -0.011224938 0.03585534 0.008286244 -0.007877958
-0.030798336 -0.013625889 -0.038378324 -0.03295826 0.033009134 -0.031516418 -0.011437231 0.019871254
-0.050132178 -0.029111104 0.019649142 0.032610245 -0.017685775 0.015883913 -0.010160502 0.025541944
-0.010742909 -0.011018552 -0.045096565 0.029074019 0.014149215 -0.02095636 -0.021997439 0.020399526
0.008414528 0.0007334129 -0.006633923 0.05168293 0.01653443 -0.023962261 0.019668523 -0.03266256
-0.055311713 -0.017489366 -0.042678814 -0.007572487 0.1691349 -0.028916802 -0.043084294 -0.30975103
0.034329806 -0.014588289 0.017236818 -0.27370954 -0.11302528 -0.027958184 0.20201461 0.19500352
0.11816449 -0.11234684 0.13551457 0.022130726 -0.069161974 0.06481153 0.013183118 0.1899908
-0.1822709 -0.07334293 0.07601273 -0.030280834 -0.010284842 0.12656242 -0.05166151 -0.15096891
-0.19930273 0.04102471 -0.010009774 0.029299783 -0.18170084 -0.030806484 -0.19861169 0.35897353
0.0429637 0.02031345 -0.006209411 0.054180816 -0.053562693 -0.0064717145 -0.16758649 0.06915893
0.037025206 -0.09423188 -0.026711522 -0.16076496 -0.19443023 -0.04872418 -0.0399073 -0.0071129003
0.117285304 0.15553 -0.18132134 -0.08408384 -0.286916 0.27052033 0.12978855 -0.16118836

bias f4 [10]
00000000: 9c9c 223d 8c02 ae3c 79ac 923d ff64 cabc
00000010: 6a6b a4bd 7957 1dbe 1e97 2ebd 1b13 ab3d
00000020: 5ecb 173c fb9b 833d
0.039700136 0.021241449 0.07161803 -0.024706362 -0.080283 -0.153654 -0.042624585 0.083532535
0.009264795 0.06426235
