day7/data/cnn_model.pth (torch, 206172 bytes, 6 tensors)

weight f4 [32, 1, 3, 3]
0.33330926 0.40549302 0.2924695 0.17915869 0.4777969 -0.24273208 -0.030705784 0.06500457
-0.78229517 0.050946515 0.09791171 0.28227767 0.23012 -0.05951996 0.21442473 0.20493424
0.21542412 -0.30869487 -0.27878073 -0.15193607 0.4134992 0.47796726 0.46346018 -0.040596526
-0.18876782 -0.28562605 -0.46689692 -0.021584673 -0.014716797 0.30290174 -0.1378388 0.3363612
0.2208193 -0.025859242 0.040092602 -0.119729966 -0.4997512 -0.058578275 0.4544763 0.55836153
-0.32897356 -0.34322053 0.18493833 0.0010303453 -0.068790615 0.09036338 0.4387383 -0.4803002
-0.05401062 0.53486574 0.33241826 0.17196493 -0.16635308 0.26580533 0.41383874 0.072674096
-0.14846143 -0.13463072 -0.1019551 -0.4916628 0.102513 0.47184446 0.14556338 -0.43673632
-0.45571268 0.008678353 -0.54146785 -0.24499944 -0.04545249 -0.5339586 0.011187583 0.56862956
-0.5325078 -0.6861205 -0.20364259 -0.021487897 0.18582217 -0.13161367 0.3923258 0.4228712
0.38643244 -0.4691721 0.21163239 0.36315027 0.32114148 0.45611912 -0.15411194 -0.29591918
0.29126805 0.3241978 0.35574594 0.22836438 0.26739478 0.2779182 0.17850482 0.26513845
-0.20758149 -0.36373302 -0.13784143 0.04993068 0.4322265 0.47235563 -0.58813107 -0.86085784
-0.56617796 0.31577435 0.26771754 -0.06378861 -0.13106108 0.1791277 -0.27245662 -0.13643846
-0.105202705 0.09785807 0.10525426 -0.30411693 -0.21753785 0.35529834 0.363326 -0.060408317
0.39304754 -0.15981719 -0.43635994 0.3814346 0.2892028 0.17934117 -0.17636998 0.37445515
-0.30601203 -0.47774678 0.26093665 0.3865334 -0.2767388 0.19424804 0.4398548 0.1909377
0.4757117 0.5562352 -0.11617569 0.28554168 -0.06413372 -0.80423963 -0.47752187 -0.38595736
-0.51991034 -0.56940645 -0.31083804 -0.6054329 0.05135037 -0.21334943 -0.4117841 0.07695787
-0.062382907 -0.48103002 0.15359317 0.17292881 -0.16496624 0.5090945 0.27515063 -0.182362
0.10755748 0.17597696 -0.4824665 -0.56518996 0.21300536 -0.33910584 0.41092914 0.31706855
0.03134302 0.4214522 0.03125465 0.4506677 0.38601217 0.32019112 0.16309476 -0.014324039
0.20439973 -0.6022781 -0.561505 -0.33660457 0.21205047 0.24298495 -0.35869506 0.0943416
0.4763838 0.4359482 -0.56700706 -0.12033645 0.09960863 0.07747346 0.20889114 0.015519163
-0.3510852 0.105620466 -0.19081418 -0.0023955707 0.04483781 0.18493737 0.17255867 0.46359542
0.48953882 0.57345915 -0.07914748 -0.4480614 0.30747357 -0.62935156 -0.642248 0.3316777
-0.60373276 0.07201937 -0.5250641 -0.3058976 0.3865955 -0.6926582 -0.10466521 0.2795308
-0.014315624 0.34487006 -0.24278001 0.41181466 -0.0070431936 0.39693245 0.49255353 0.2888392
-0.096709475 -0.017940516 -0.8337828 -0.3114808 0.07138237 -0.05881122 -0.16905473 0.70066
0.42935386 0.15553384 -0.7709087 -0.63894236 -0.27558327 -0.070106074 -0.029380355 -0.24088654
0.19197915 0.4157098 0.11141359 -0.17528272 -0.261831 0.35343686 -0.40500146 -0.06724247
0.4307212 0.20201758 0.11831793 -0.037355974 -0.5576221 -0.5291872 0.13429359 -0.81131434
00000000: 83a7 aa3e c89c cf3e 90be 953e 6075 373e
00000010: cca1 f43e c28e 78be b28a fbbc 1e21 853d
00000020: 7f44 48bf 4bad 503d ef85 c83d b386 903e
00000030: 94a4 6b3e 34cb 73bd 2892 5b3e 48da 513e
00000040: 2498 5c3e 410d 9ebe 59bc 8ebe 2195 1bbe
00000050: 2bb6 d33e 20b8 f43e a74a ed3e 8b48 26bd
00000060: 5a4c 41be 943d 92be 1d0d efbe 57d2 b0bc
00000070: b81e 71bc f015 9b3e 9d25 0dbe 8937 ac3e
00000080: 741e 623e c3d6 d3bc 2438 243d fc34 f5bd
00000090: 64df ffbe c6ef 6fbd 1eb1 e83e c8f0 0e3f
000000a0: 396f a8be 9aba afbe 7960 3d3e a70c 873a
000000b0: 18e2 8cbd 7010 b93d 4ea2 e03e e8e9 f5be
000000c0: 3d3a 5dbd f6ec 083f ba32 aa3e 9317 303e
000000d0: 7658 2abe a317 883e ace2 d33e 28d6 943d
000000e0: 4606 18be a3dc 09be d6cd d0bd 3abb fbbe
000000f0: 56f2 d13d 9995 f13e 910e 153e e79b dfbe
00000100: 2c53 e9be a72f 0e3c a39d 0abf 22e1 7abe
00000110: 642c 3abd 83b1 08bf 204c 373c b591 113f
00000120: 6e52 08bf 98a5 2fbf af87 50be 6307 b0bc
00000130: 2b48 3e3e bcc5 06be edde c83e 9382 d83e
00000140: 79da c53e 5337 f0be 29b6 583e d5ee b93e
00000150: a86c a43e 7288 e93e 85cf 1dbe b882 97be
00000160: 1621 953e 41fd a53e 5524 b63e 5ad8 693e
00000170: f8e7 883e 4b4b 8e3e f8c9 363e 3ac0 873e
00000180: 3e90 54be 373b babe 4e26 0dbe 1d84 4c3d
00000190: cb4c dd3e 99d8 f13e c28f 16bf 2e61 5cbf
000001a0: 0af1 10bf 2dad a13e 4612 893e 9aa3 82bd
000001b0: e034 06be 406d 373e 6f7f 8bbe 86b6 0bbe
000001c0: 8474 d7bd d069 c83d 8c8f d73d 37b5 9bbe
000001d0: 3ec2 5ebe aae9 b53e de05 ba3e b66e 77bd
000001e0: 873d c93e 1ea7 23be 926a dfbe 654b c33e
000001f0: 6412 943e 36a5 373e 559a 34be 96b8 bf3e
00000200: 9cad 9cbe 3a9b f4be 7d99 853e b5e7 c53e
00000210: b5b0 8dbe f5e8 463e a634 e13e 2c85 433e
00000220: 7c90 f33e 6e65 0e3f 85ed edbd 8532 923e
00000230: 8a58 83bd a6e2 4dbf bf7d f4be 349c c5be
00000240: d818 05bf 9fc4 11bf 2a26 9fbe a7fd 1abf
00000250: c454 523d 4678 5abe 5ed5 d2be 169c 9d3d
00000260: 3885 7fbd 9149 f6be 8747 1d3e 4014 313e
00000270: e9ec 28be 0454 023f 8be0 8c3e 1bbd 3abe
00000280: 1947 dc3d 4e33 343e d905 f7be 4ab0 10bf
00000290: 141e 5a3e 489f adbe 4e65 d23e cf56 a23e
000002a0: 8a61 003d 95c8 d73e e004 003d ebbd e63e
000002b0: 63a3 c53e 17f0 a33e 5002 273e 60af 6abc
000002c0: 2a4e 513e e62e 1abf cbbe 0fbf 6f57 acbe
000002d0: c223 593e 0cd1 783e e1a6 b7be 2b36 c13d
000002e0: 94e8 f33e 9a34 df3e 6027 11bf f572 f6bd
000002f0: 9cff cb3d 68aa 9e3d 8fe7 553e 1644 7e3c
00000300: 70c1 b3be 8b4f d83d cb64 43be 02ff 1cbb
00000310: daa7 373d 3960 3d3e 38b3 303e 615c ed3e
00000320: d5a4 fa3e 38ce 123f 1318 a2bd 4e68 e5be
00000330: 2d6d 9d3e 2f1d 21bf 5d6a 24bf a9d1 a93e
00000340: 3b8e 1abf e47e 933d 9a6a 06bf 9c9e 9cbe
00000350: d8ef c53e 0c52 31bf b75a d6bd a91e 8f3e
00000360: 148c 6abc cf92 b03e 539b 78be 5fd9 d23e
00000370: 97ca e6bb bb3a cb3e fa2f fc3e bbe2 933e
00000380: 9e0f c6bd fdf7 92bc ca72 55bf 697a 9fbe
00000390: ec30 923d 09e4 70bd af1c 2dbe 745e 333f
000003a0: 45d4 db3e 4344 1f3e 465a 45bf ba91 23bf
000003b0: 4019 8dbe c693 8fbd 12af f0bc f6aa 76be
000003c0: 2f96 443e ead7 d43e cf2c e43d 507d 33be
000003d0: b60e 86be adf5 b43e 5a5c cfbe 6cb6 89bd
000003e0: 7d87 dc3e b2dd 4e3e ac50 f23d 9402 19bd
000003f0: 52c0 0ebf d078 07bf 4284 093e 4cb2 4fbf

bias f4 [32]
-0.14877255 -0.15810089 -0.010447117 -0.019198474 0.016041325 -0.18662697 -0.14946267 0.3601948
0.07930069 -0.2160385 -0.20777732 0.10179912 -0.24340445 -0.26189798 -0.001937075 -0.00038785092
0.33093432 -0.05205628 -0.019597134 -0.0008158404 -0.0704814 -0.030903753 -0.0066926386 0.29616082
-0.24083759 -0.0007688102 0.23190352 -0.09081468 -0.03960795 0.0013746279 -0.27367875 0.03714247
00000000: d557 18be 33e5 21be 622a 2bbc 1e46 9dbc
00000010: 1969 833c 241b 3fbe be0c 19be 746b b83e
00000020: 6668 a23d 3239 5dbe 94c3 54be 0f7c d03d
00000030: 043f 79be 7e17 86be 74e5 fdba 7858 cbb9
00000040: 3970 a93e f738 55bd 2b8a a0bc 1fde 55ba
00000050: 8d58 90bd de29 fdbc ec4d dbbb 64a2 973e
00000060: 219e 76be fb89 49ba 1e78 6d3e 0cfd b9bd
00000070: f23b 22bd dc2c b43a 9f1f 8cbe b422 183d

weight f4 [64, 32, 3, 3]
-0.17121981 0.14901365 0.08047109 -0.36980173 -0.010765875 -0.034755614 -0.26561525 -0.116200276
0.038576297 -0.10035868 0.061856262 -0.008236782 -0.050372936 -0.013729884 -0.007112706 -0.14806567
0.04542487 0.018158492 -0.051867504 -0.034296077 -0.03409439 0.03026111 -0.009834686 -0.1239327
-0.13852398 -0.18116274 -0.1370179 -0.029384244 -0.0062885606 -0.112310305 -0.020898905 0.04200265
0.0026563632 -0.036536947 0.07655647 0.08105531 -0.21062993 -0.21534361 0.12870151 0.17740296
-0.39053485 0.11255944 0.15952785 -0.009317726 0.16671225 0.02720531 0.0858491 0.03287337
-0.0077875564 0.15401138 0.031082481 -0.094227664 0.07406696 0.13926503 -0.09476259 0.082517475
0.1235876 -0.10773257 0.08130847 0.06975778 -0.08321231 0.015163836 0.10418063 0.11816937
0.06367484 -0.0035386498 0.008238943 -0.0145876175 -0.10575404 0.033057794 -0.0002298027 -0.1338945
-0.13664891 -0.04305831 -0.022108259 -0.17364433 -0.017610999 0.020412281 0.044243317 -0.101434365
-0.10006981 0.096769944 0.07908836 -0.17069498 0.008654608 0.17435592 -0.0523929 -0.010717393
0.11903128 0.032989144 0.021759821 0.03686218 -0.080739535 -0.09179331 0.096095756 -0.033025082
-0.08602217 0.0069425907 0.041861203 -0.2820436 -0.1242334 0.1355531 -0.07775639 -0.17988805
-0.22413883 0.062347423 0.004214864 -0.11684082 -0.015188474 -0.0087868385 0.03554627 0.045949418
0.01572976 0.050684948 -0.014954742 -0.00093008863 0.014752287 -0.066241704 0.16986771 0.041848153
-0.23817126 0.03199328 0.10914142 -0.25204733 -0.0026767438 0.13570514 0.07589201 0.10523112
-0.11322357 -0.0030464106 0.14323018 -0.07458989 -0.099268205 0.13042666 -0.05416587 -0.13866156
-0.05999793 -0.28493202 -0.0894094 0.096193105 -0.27508724 -0.0014878068 0.06210918 -0.024665575
-0.03695372 0.030787881 0.08199673 0.028561674 -0.01529883 0.062201265 0.1134501 -0.009434865
-0.11301654 0.11235314 0.056477524 -0.23355274 0.117910676 0.14520612 -0.08268501 -0.07747707
0.11754812 -0.018606218 0.07149029 0.057411104 -0.1761199 -0.052428808 0.02299991 -0.07241305
-0.0213431 -0.044772647 -0.144077 -0.16934417 -0.33273646 -0.2716024 -0.05511873 -0.11200517
-0.26219112 -0.13535167 -0.1434493 -0.13644393 0.024488673 0.07711531 -0.04561285 -0.0046800454
0.15928647 -0.013789177 -0.05322109 0.09851604 0.09374531 0.08525468 0.06516226 -0.02790423
-0.0316914 0.11077148 -0.00056459586 -0.058038354 0.09550896 0.027474485 -0.3427318 -0.095048785
-0.0042204196 -0.3703207 -0.26888317 -0.018166503 -0.26841202 -0.20830761 -0.06683197 0.15198348
-0.04188537 -0.028678857 0.016041221 -0.12170023 -0.24366553 -0.02035529 0.023691483 -0.24152912
-0.086357854 0.047765277 -0.007979831 -0.20009021 -0.03332951 0.090006374 -0.26186946 -0.03204599
0.1466005 -0.4262267 -0.20174412 0.053801928 -0.380192 -0.13336457 0.099939056 -0.009325153
-0.19010365 0.10956627 -0.16651341 -0.03483193 0.034071583 -0.13517292 0.01330757 0.075717665
0.06105352 0.01021022 -0.024892913 0.026326226 0.035638805 -0.19312254 -0.008383582 0.039064415
-0.12175379 0.01883003 0.050081212 -0.10348035 0.11792378 -0.015345511 -0.20255093 -0.060943615
00000000: 3f54 2fbe 0997 183e 07ce a43d a756 bdbe
00000010: 5a63 30bc e75b 0ebd b9fe 87be 69fa edbd
00000020: 2e02 1e3d da88 cdbd fe5c 7d3d 91f3 06bc
00000030: da53 4ebd 4ff3 60bc b411 e9bb 879e 17be
00000040: 6e0f 3a3d 1ec1 943c 0573 54bd 0b7a 0cbd
00000050: 8fa6 0bbd 26e6 f73c aa21 21bc 6dd0 fdbd
00000060: 3bd9 0dbe ba82 39be 6c4e 0cbe 3ab7 f0bc
00000070: 4510 cebb f202 e6bd 2e34 abbc f90a 2c3d
00000080: 6116 2e3b c4a7 15bd a3c9 9c3d 5400 a63d
00000090: 5faf 57be 0983 5cbe 54ca 033e 1fa9 353e
000000a0: 2ff4 c7be 9085 e63d 455b 233e 60a9 18bc
000000b0: 9eb6 2a3e acdd de3c a7d1 af3d 3aa6 063d
000000c0: c22e ffbb 29b5 1d3e b0a0 fe3c 6ffa c0bd
000000d0: 6bb0 973d 7e9b 0e3e e412 c2bd ecfe a83d
000000e0: 7f1b fd3d e5a2 dcbd 0e85 a63d 2bdd 8e3d
000000f0: 376b aabd bd71 783c a75c d53d c802 f23d
00000100: f467 823d b1e8 67bb a2fc 063c e700 6fbc
00000110: 9395 d8bd 9c67 073d 31f7 70b9 a41b 09be
00000120: b1ed 0bbe e95d 30bd 611c b5bc d2cf 31be
00000130: f144 90bc a837 a73c 7b38 353d d2bc cfbd
00000140: 67f1 ccbd 522f c63d 14f9 a13d aaca 2ebe
00000150: 0fcc 0d3c 5c8a 323e f099 56bd 0198 2fbc
00000160: acc6 f33d a01f 073d a741 b23c ccfc 163d
00000170: c55a a5bd 22fe bbbd dacd c43d 4f45 07bd
00000180: 642c b0bd ac7e e33b a776 2b3d 0568 90be
00000190: 156e febd 6fce 0a3e be3e 9fbd 9334 38be
000001a0: a684 65be 0360 7f3d d81c 8a3b 3d4a efbd
000001b0: 14d9 78bc acf6 0fbc f798 113d 7535 3c3d
000001c0: b3db 803c 059b 4f3d bc04 75bc 31d1 73ba
000001d0: 94b3 713c bba9 87bd cdf1 2d3e f868 2b3d
000001e0: 2be3 73be 630b 033d 8985 df3d 590c 81be
000001f0: 4f6c 2fbb 4af6 0a3e 456d 9b3d 6a83 d73d
00000200: c2e1 e7bd 4aa6 47bb efaa 123e 96c2 98bd
00000210: 214d cbbd 918e 053e 08dd 5dbd 4cfd 0dbe
00000220: 64c0 75bd 9ce2 91be 471c b7bd e400 c53d
00000230: 3cd8 8cbe 8302 c3ba 3266 7e3d 760f cabc
00000240: c95c 17bd de36 fc3c e7ed a73d 2cfa e93c
00000250: f2a7 7abc c1c6 7e3d 8758 e83d b194 1abc
00000260: 3775 e7bd 6719 e63d fa54 673d 7328 6fbe
00000270: 277b f13d eab0 143e c256 a9bd 4cac 9ebd
00000280: 12bd f03d 116c 98bc 8069 923d e827 6b3d
00000290: c658 34be 97bf 56bd 4f6a bc3c 4b4d 94bd
000002a0: bad7 aebc 8663 37bd ec88 13be 8f68 2dbe
000002b0: 6f5c aabe 780f 8bbe 2dc4 61bd f762 e5bd
000002c0: ea3d 86be a199 0abe 60e4 12be f5b7 0bbe
000002d0: 789c c83c a2ee 9d3d 8ad4 3abd 115b 99bb
000002e0: fe1b 233e 00ec 61bc 5cfe 59bd c7c2 c93d
000002f0: 8bfd bf3d 019a ae3d ca73 853d 6997 e4bc
00000300: d7ce 01bd 28dc e23d 6301 14ba a0b9 6dbd
00000310: 349a c33d 2c12 e13c 8b7a afbe f0a8 c2bd
00000320: 724b 8abb ad9a bdbe 0eab 89be ebd1 94bc
00000330: 4d6d 89be 974e 55be 33df 88bd 8fa1 1b3e
00000340: fe8f 2bbd ecef eabc e168 833c f83d f9bd
00000350: 7583 79be 23c0 a6bc a414 c23c 6953 77be
00000360: 63dc b0bd 86a5 433d d6bd 02bc 73e4 4cbe
00000370: 8684 08bd 4355 b83d c113 86be a842 03bd
00000380: 711e 163e 633a dabe 0396 4ebe 695f 5c3d
00000390: 87a8 c2be b990 08be d9ac cc3d 87c8 18bc
000003a0: 88aa 42be 4864 e03d 7e82 2abe edab 0ebd
000003b0: a58e 0b3d c56a 0abe fe07 5a3c dd11 9b3d
000003c0: 4113 7a3d c448 273c 39ec cbbc 19aa d73c
000003d0: fff9 113d eac1 45be 4b5b 09bc 0202 203d
000003e0: 0d5a f9bd 6f41 9a3c f521 4d3d 81ed d3bd
000003f0: 0682 f13d bd6b 7bbc 8369 4fbe 03a0 79bd

bias f4 [64]
-0.036099996 -0.09926939 -0.068433605 -0.043807432 -0.05761254 -0.08787306 -0.13640417 -0.05273974
-0.01605724 -0.065176785 -0.07586415 -0.0025342708 -0.06040171 -0.05327984 -0.0042583616 -0.026582565
-0.030207949 -0.123671785 -0.029809706 -0.055452917 -0.14413789 -0.0066924733 -0.077681825 0.028634144
-0.10055971 -0.00023374229 -0.04212444 -0.06821634 0.050357927 -0.07585712 -0.07435024 -0.0032889328
-0.084922746 -0.12857522 -0.08557989 -0.0065828147 -0.06878939 -0.115535736 0.0048774863 -0.008999372
-0.13318762 -0.040868443 -0.10736694 -0.043314017 -0.057819225 -0.02142512 -0.059521064 -0.013514759
-0.10977106 0.021341924 -0.088673264 -0.048670616 -0.077145614 -0.061925735 -0.0096274335 0.0060897116
-0.03858449 0.039642684 -0.0448213 0.019878376 0.02869542 -0.040313106 -0.0057222806 -0.089578316
00000000: 97dd 13bd c04d cbbd eb26 8cbd 6c6f 33bd
00000010: 20fb 6bbd caf6 b3bd 89ad 0bbe a005 58bd
00000020: 798a 83bc 687b 85bd aa5e 9bbd 0216 26bb
00000030: c967 77bd f63b 5abd ba89 8bbb aec3 d9bc
00000040: a976 f7bc a247 fdbd 7c33 f4bc 9922 63bd
00000050: e298 13be 894c dbbb a617 9fbd 2792 ea3c
00000060: 40f2 cdbd b818 75b9 ad8a 2cbd 02b5 8bbd
00000070: 1d44 4e3d fa5a 9bbd f044 98bd 238b 57bb
00000080: faeb adbd 39a9 03be 8244 afbd a7b4 d7bb
00000090: 74e1 8cbd 009e ecbd 52d3 9f3b 1a72 13bc
000000a0: 5662 08be ab65 27bd 33e3 dbbd 0a6a 31bd
000000b0: dad3 6cbd bc83 afbc 5ccc 73bd 026d 5dbc
000000c0: a6cf e0bd 42d5 ae3c 549a b5bd d75a 47bd
000000d0: 85fe 9dbd d7a5 7dbd 62bc 1dbc 348c c73b
000000e0: c50a 1ebd 5e60 223d 8a96 37bd fad7 a23c
000000f0: a812 eb3c 5b1f 25bd f881 bbbb d674 b7bd

weight f4 [10, 3136]
0.01016332 -0.08398052 -0.04027047 0.030219713 -0.005304621 0.12937696 -0.011451554 -0.0554024
-0.004678599 -0.0041124932 -0.057762057 -0.013184994 0.0027858447 0.0023846747 0.0037563306 0.025573606
-0.017579023 -0.025478093 0.05279511 0.06593574 0.024169417 -0.12690607 0.043591045 -0.051714577
-0.116217285 -0.00018521336 0.10589967 0.024940632 -0.09990536 -0.035997763 0.050068162 0.029580554
-0.060618695 0.015059498 -0.06695921 0.04899463 0.03065824 0.14961837 0.12158569 -0.25626183
-0.2333914 -0.21307768 0.022914538 -0.01032908 -0.15794939 -0.33829316 -0.41338184 -0.13826612
-0.017495833 -0.017409122 -0.015425293 0.0118966745 -0.019409759 -0.046707936 -0.029821323 0.010876493
0.011443557 0.054224603 9.095883e-05 -0.0660258 -0.036313623 -0.020934792 -0.16480154 -0.050962042
-0.0388796 0.045636147 0.15394399 0.011299459 0.024009852 0.0035201947 -0.011842875 -0.045854352
-0.12509798 -0.07470854 -0.052884977 0.14454874 -0.15469912 0.01910106 0.0031330478 0.028739888
-0.12828888 -0.14459218 -0.10394414 0.095705114 0.012192696 0.04239098 0.0071740923 -0.020069795
-0.062993646 -0.0075589824 -0.018215481 0.0048523084 -0.020481376 -0.083474666 -0.24970357 0.061466377
0.013959176 -0.040916566 0.029355893 0.045485087 -0.02869778 0.0222852 0.00791772 -0.12507822
-0.03580729 0.07198657 -0.05013285 0.017388867 -0.06936579 0.072626196 0.0114060985 0.04800808
0.09106842 -0.0044161095 0.090024754 0.10361176 -0.29801518 -0.21348755 -0.19575906 0.015590268
0.13603581 0.13662373 0.010101116 -0.018176816 0.13134202 -0.26101223 0.022395616 0.034873735
0.11084632 -0.050938237 0.014528282 -0.037523832 0.07085767 -0.042776354 -0.050013214 -0.25319374
0.006908726 0.08844999 -0.059606154 0.058772333 0.15932015 -0.40311906 -0.32705992 -0.24893475
0.05758842 -0.027741235 0.080547765 0.00841576 -0.0068377657 0.034446947 0.024228806 -0.0063366974
0.00646881 -0.0056891404 0.024724785 0.012314874 -0.011224938 0.03585534 0.008286244 -0.007877958
-0.030798336 -0.013625889 -0.038378324 -0.03295826 0.033009134 -0.031516418 -0.011437231 0.019871254
-0.050132178 -0.029111104 0.019649142 0.032610245 -0.017685775 0.015883913 -0.010160502 0.025541944
-0.010742909 -0.011018552 -0.045096565 0.029074019 0.014149215 -0.02095636 -0.021997439 0.020399526
0.008414528 0.0007334129 -0.006633923 0.05168293 0.01653443 -0.023962261 0.019668523 -0.03266256
-0.055311713 -0.017489366 -0.042678814 -0.007572487 0.004852384 -0.042637553 -0.07990615 0.08333681
-0.14039521 -0.014689449 0.06978765 -0.005414909 -0.03366469 0.06914835 0.040808473 -0.04408961
-0.04925653 -0.02474092 -0.028497487 0.0639052 0.047768403 -0.051042166 -0.14041269 0.075332396
-0.103955485 -0.10874566 0.023055395 -0.015774975 -0.045340914 0.09285543 0.0223783 0.0040274505
-0.13857491 -0.045224536 -0.10923904 0.14393346 -0.0053328206 0.07091717 -0.04818657 0.010772534
-0.037684392 0.0014673552 0.082272425 0.010559908 -0.03090323 0.036583178 -0.0343551 -0.040768404
-0.038030274 -0.06543541 -0.13543677 -0.15385856 -0.016810702 -0.04872418 -0.046849478 0.07301883
0.06958993 -0.076039396 0.016945887 0.0151374135 -0.0724118 -0.032494552 -0.009112157 0.051971573
00000000: 0e84 263c fbfd abbd a6f2 24bd 558f f73c
00000010: 63d2 adbb 657b 043e 4c9f 3bbc a1ed 62bd
00000020: ef4e 99bb 18c2 86bb e897 6cbd e005 58bc
00000030: b892 363b 3448 1c3b c52c 763b bd7f d13c
00000040: e201 90bc 6fb7 d0bc af3f 583d 5109 873d
00000050: f1fe c53c aaf3 01be 868c 323d aad2 53bd
00000060: 5403 eebd d535 42b9 ede1 d83d 4c50 cc3c
00000070: 2e9b ccbd 6472 13bd 4614 4d3d eb52 f23c
00000080: 4f4b 78bd 1dbc 763c e921 89bd 98ae 483d
00000090: fd26 fb3c 8f35 193e eb01 f93d c034 83be
000000a0: 28fe 6ebe 0931 5abe 45b7 bb3c 4d3b 29bc
000000b0: 7cbd 21be c334 adbe c9a6 d3be a295 0dbe
000000c0: 6c53 8fbc 939d 8ebc 5eba 7cbc 45ea 423c
000000d0: 3701 9fbc d250 3fbd d94b f4bc 5133 323c
000000e0: c27d 3b3c 9e1a 5e3d 26c1 be38 8938 87bd
000000f0: 98bd 14bd 717f abbc bcc1 28be 93bd 50bd
00000100: 3740 1fbd f8ec 3a3d 7ea3 1d3e 5e21 393c
00000110: 4fb0 c43c 11b3 663b 9e08 42bc c6d1 3bbd
00000120: af19 00be cb00 99bd eb9d 58bd 9604 143e
00000130: 7269 1ebe d479 9c3c d253 4d3b ea6f eb3c
00000140: 295e 03be f90f 14be aae0 d4bd 0b01 c43d
00000150: e0c3 473c 2aa2 2d3d a614 eb3b 6969 a4bc
00000160: d002 81bd 57b1 f7bb a238 95bc 1d00 9f3b
00000170: 8fc8 a7bc c4f4 aabd 4bb2 7fbe 2bc4 7b3d
00000180: 07b5 643c 2198 27bd c57b f03c 924e 3a3d
00000190: 9b17 ebbc 748f b63c 53b9 013c 8114 00be
000001a0: aaaa 12bd b26d 933d 1a58 4dbd 1973 8e3c
000001b0: a70f 8ebd 0bbd 943d a5e0 3a3c 1fa4 443d
000001c0: 1482 ba3d 03b5 90bb e65e b83d 6732 d43d
000001d0: 7295 98be 7b9c 5abe 1075 48be 536e 7f3c
000001e0: f94c 0b3e 17e7 0b3e 277f 253c 8ce7 94bc
000001f0: 867e 063e 65a3 85be 0377 b73c c3d7 0e3d
00000200: 6503 e33d 9da4 50bd 0808 6e3c 97b2 19bd
00000210: d31d 913d 4236 2fbd a8da 4cbd 9ca2 81be
00000220: 9862 e23b 4525 b53d 9525 74bd 42bb 703d
00000230: d224 233e 9f65 cebe 6674 a7be c0e8 7ebe
00000240: d6e1 6b3d 9641 e3bc 3af6 a43d 41e2 093c
00000250: 560f e0bb 3e18 0d3d 7d7b c63c 12a4 cfbb
00000260: 50f8 d33b f86b babb a28b ca3c 53c4 493c
00000270: cde8 37bc 0ddd 123d 07c3 073c 8d12 01bc
00000280: cb4c fcbc 1f3f 5fbc 9732 1dbd 3eff 06bd
00000290: 9634 073d 5c17 01bd 3963 3bbc 0ac9 a23c
000002a0: 6657 4dbd 697a eebc 3df7 a03c 5292 053d
000002b0: c2e1 90bc fb1e 823c 3c78 26bc 573d d13c
000002c0: 0703 30bc 2887 34bc 2db7 38bd a32c ee3c
000002d0: 1cd2 673c acac abbc f933 b4bc e81c a73c
000002e0: 17dd 093c 8242 403a 6161 d9bb 7bb1 533d
000002f0: 3773 873c 814c c4bc e21f a13c 2dc9 05bd
00000300: 898e 62bd dc45 8fbc fbcf 2ebd a022 f8bb
00000310: bf00 9f3b b7a4 2ebd d6a5 a3bd 7dac aa3d
00000320: c3c3 0fbe 04ac 70bc d4ec 8e3d 8d6f b1bb
00000330: fce3 09bd a69d 8d3d c926 273d 4f97 34bd
00000340: 37c1 49bd 78ad cabc 9073 e9bc bbe0 823d
00000350: cda8 433d 9711 51bd 58c8 0fbe df47 9a3d
00000360: 9de6 d4bd 0bb6 debd abde bc3c 853a 81bc
00000370: 65b7 39bd fd2a be3d b252 b73c b4f8 833b
00000380: 95e6 0dbe 5d3d 39bd b8b8 dfbd 4b63 133e
00000390: f1be aebb 053d 913d 485f 45bd 487f 303c
000003a0: f35a 1abd 4554 c03a 727e a83d 7703 2d3c
000003b0: c528 fdbc 3ed8 153d efb7 0cbd c5fc 26bd
000003c0: a2c5 1bbd 0003 86bd f0af 0abe 198d 1dbe
000003d0: 99b6 89bc 0193 47bd 3de5 3fbd e58a 953d
000003e0: 2a85 8e3d 8bba 9bbd 1ad2 8a3c ea02 783c
000003f0: a34c 94bd 0219 05bd 284b 15bc 25e0 543d

bias f4 [10]
0.05236181 0.0907208 0.030646037 -0.07277253 -0.034004115 -0.015626725 -0.016179673 -0.03396865
0.012671663 0.012599402
00000000: 5679 563d d4cb b93d 660d fb3c c409 95bd
00000010: e647 0bbd 9e03 80bc 3c8b 84bc b622 0bbd
00000020: cf9c 4f3c b96d 4e3c
